…
          ...,
          [0., 0., 0.,  ..., 0., 0., 0.],
          [0., 0., 0.,  ..., 0., 0., 0.],
          [0., 0., 0.,  ..., 0., 0., 0.]]]], device='cuda:0')
>>> SENDING MODEL TO GPU...
Train-Epoch: [0][0/16]	Time 0.706 (0.706)	Loss 27.9538 (27.9538)	Prec@1 0.297 (0.297)
Train-Epoch: [0][10/16]	Time 0.759 (0.744)	Loss 2.7915 (15.9885)	Prec@1 0.977 (0.716)
| Elapsed time : 0:00:13
prec=0.9870000014305115
{'fgsm': {'denoiser': DataParallel(
  (module): Denoiser(
    (forward_blocks): ModuleList(
      (0): NetworkBlock(
        (layer): Sequential(
          (0): BasicBlock(
            (conv): Conv2d(1, 64, kernel_size=(3, 3), stride=(1, 1), padding=(1, 1))
            (batchNorm1): BatchNorm2d(64, eps=1e-05, momentum=0.9, affine=True, track_running_stats=True)
          )
          (1): BasicBlock(
            (conv): Conv2d(64, 64, kernel_size=(3, 3), stride=(1, 1), padding=(1, 1))
            (batchNorm1): BatchNorm2d(64, eps=1e-05, momentum=0.9, affine=True, track_running_stats=True)
          )
        )
      )
      (1): NetworkBlock(
        (layer): Sequential(
          (0): BasicBlock(
            (conv): Conv2d(64, 128, kernel_size=(3, 3), stride=(2, 2), padding=(1, 1))
            (batchNorm1): BatchNorm2d(128, eps=1e-05, momentum=0.9, affine=True, track_running_stats=True)
          )
          (1): BasicBlock(
            (conv): Conv2d(128, 128, kernel_size=(3, 3), stride=(1, 1), padding=(1, 1))
            (batchNorm1): BatchNorm2d(128, eps=1e-05, momentum=0.9, affine=True, track_running_stats=True)
          )
          (2): BasicBlock(
            (conv): Conv2d(128, 128, kernel_size=(3, 3), stride=(1, 1), padding=(1, 1))
            (batchNorm1): BatchNorm2d(128, eps=1e-05, momentum=0.9, affine=True, track_running_stats=True)
          )
        )
      )
      (2): NetworkBlock(
        (layer): Sequential(
          (0): BasicBlock(
            (conv): Conv2d(128, 256, kernel_size=(3, 3), stride=(2, 2), padding=(1, 1))
            (batchNorm1): BatchNorm2d(256, eps=1e-05, momentum=0.9, affine=True, track_running_stats=True)
          )
          (1): BasicBlock(
            (conv): Conv2d(256, 256, kernel_size=(3, 3), stride=(1, 1), padding=(1, 1))
            (batchNorm1): BatchNorm2d(256, eps=1e-05, momentum=0.9, affine=True, track_running_stats=True)
          )
          (2): BasicBlock(
            (conv): Conv2d(256, 256, kernel_size=(3, 3), stride=(1, 1), padding=(1, 1))
            (batchNorm1): BatchNorm2d(256, eps=1e-05, momentum=0.9, affine=True, track_running_stats=True)
          )
        )
      )
      (3): NetworkBlock(
        (layer): Sequential(
          (0): BasicBlock(
            (conv): Conv2d(256, 256, kernel_size=(3, 3), stride=(2, 2), padding=(1, 1))
            (batchNorm1): BatchNorm2d(256, eps=1e-05, momentum=0.9, affine=True, track_running_stats=True)
          )
          (1): BasicBlock(
            (conv): Conv2d(256, 256, kernel_size=(3, 3), stride=(1, 1), padding=(1, 1))
            (batchNorm1): BatchNorm2d(256, eps=1e-05, momentum=0.9, affine=True, track_running_stats=True)
          )
          (2): BasicBlock(
            (conv): Conv2d(256, 256, kernel_size=(3, 3), stride=(1, 1), padding=(1, 1))
            (batchNorm1): BatchNorm2d(256, eps=1e-05, momentum=0.9, affine=True, track_running_stats=True)
          )
        )
      )
      (4): NetworkBlock(
        (layer): Sequential(
          (0): BasicBlock(
            (conv): Conv2d(256, 256, kernel_size=(3, 3), stride=(2, 2), padding=(1, 1))
            (batchNorm1): BatchNorm2d(256, eps=1e-05, momentum=0.9, affine=True, track_running_stats=True)
          )
          (1): BasicBlock(
            (conv): Conv2d(256, 256, kernel_size=(3, 3), stride=(1, 1), padding=(1, 1))
            (batchNorm1): BatchNorm2d(256, eps=1e-05, momentum=0.9, affine=True, track_running_stats=True)
          )
          (2): BasicBlock(
            (conv): Conv2d(256, 256, kernel_size=(3, 3), stride=(1, 1), padding=(1, 1))
            (batchNorm1): BatchNorm2d(256, eps=1e-05, momentum=0.9, affine=True, track_running_stats=True)
          )
        )
      )
    )
    (backward_blocks): ModuleList(
      (0): NetworkBlock(
        (layer): Sequential(
          (0): BasicBlock(
            (conv): Conv2d(512, 256, kernel_size=(3, 3), stride=(2, 2), padding=(1, 1))
            (batchNorm1): BatchNorm2d(256, eps=1e-05, momentum=0.9, affine=True, track_running_stats=True)
          )
          (1): BasicBlock(
            (conv): Conv2d(256, 256, kernel_size=(3, 3), stride=(1, 1), padding=(1, 1))
            (batchNorm1): BatchNorm2d(256, eps=1e-05, momentum=0.9, affine=True, track_running_stats=True)
          )
          (2): BasicBlock(
            (conv): Conv2d(256, 256, kernel_size=(3, 3), stride=(1, 1), padding=(1, 1))
            (batchNorm1): BatchNorm2d(256, eps=1e-05, momentum=0.9, affine=True, track_running_stats=True)
          )
        )
      )
      (1): NetworkBlock(
        (layer): Sequential(
          (0): BasicBlock(
            (conv): Conv2d(512, 256, kernel_size=(3, 3), stride=(2, 2), padding=(1, 1))
            (batchNorm1): BatchNorm2d(256, eps=1e-05, momentum=0.9, affine=True, track_running_stats=True)
          )
          (1): BasicBlock(
            (conv): Conv2d(256, 256, kernel_size=(3, 3), stride=(1, 1), padding=(1, 1))
            (batchNorm1): BatchNorm2d(256, eps=1e-05, momentum=0.9, affine=True, track_running_stats=True)
          )
          (2): BasicBlock(
            (conv): Conv2d(256, 256, kernel_size=(3, 3), stride=(1, 1), padding=(1, 1))
            (batchNorm1): BatchNorm2d(256, eps=1e-05, momentum=0.9, affine=True, track_running_stats=True)
          )
        )
      )
      (2): NetworkBlock(
        (layer): Sequential(
          (0): BasicBlock(
            (conv): Conv2d(384, 128, kernel_size=(3, 3), stride=(2, 2), padding=(1, 1))
            (batchNorm1): BatchNorm2d(128, eps=1e-05, momentum=0.9, affine=True, track_running_stats=True)
          )
          (1): BasicBlock(
            (conv): Conv2d(128, 128, kernel_size=(3, 3), stride=(1, 1), padding=(1, 1))
            (batchNorm1): BatchNorm2d(128, eps=1e-05, momentum=0.9, affine=True, track_running_stats=True)
          )
          (2): BasicBlock(
            (conv): Conv2d(128, 128, kernel_size=(3, 3), stride=(1, 1), padding=(1, 1))
            (batchNorm1): BatchNorm2d(128, eps=1e-05, momentum=0.9, affine=True, track_running_stats=True)
          )
        )
      )
      (3): NetworkBlock(
        (layer): Sequential(
          (0): BasicBlock(
            (conv): Conv2d(192, 64, kernel_size=(3, 3), stride=(1, 1), padding=(1, 1))
            (batchNorm1): BatchNorm2d(64, eps=1e-05, momentum=0.9, affine=True, track_running_stats=True)
          )
          (1): BasicBlock(
            (conv): Conv2d(64, 64, kernel_size=(3, 3), stride=(1, 1), padding=(1, 1))
            (batchNorm1): BatchNorm2d(64, eps=1e-05, momentum=0.9, affine=True, track_running_stats=True)
          )
        )
      )
    )
    (upsampler): ModuleList(
      (0): Upsample(size=(4, 4), mode=bilinear)
      (1): Upsample(size=(7, 7), mode=bilinear)
      (2): Upsample(size=(14, 14), mode=bilinear)
      (3): Upsample(size=(28, 28), mode=bilinear)
    )
    (conv_1): Conv2d(64, 1, kernel_size=(1, 1), stride=(1, 1))
  )
), 'prec': 0.983}, 'bim': {'denoiser': DataParallel(
  (module): Denoiser(
    (forward_blocks): ModuleList(
      (0): NetworkBlock(
        (layer): Sequential(
          (0): BasicBlock(
            (conv): Conv2d(1, 64, kernel_size=(3, 3), stride=(1, 1), padding=(1, 1))
            (batchNorm1): BatchNorm2d(64, eps=1e-05, momentum=0.9, affine=True, track_running_stats=True)
          )
          (1): BasicBlock(
            (conv): Conv2d(64, 64, kernel_size=(3, 3), stride=(1, 1), padding=(1, 1))
            (batchNorm1): BatchNorm2d(64, eps=1e-05, momentum=0.9, affine=True, track_running_stats=True)
          )
        )
      )
      (1): NetworkBlock(
        (layer): Sequential(
          (0): BasicBlock(
            (conv): Conv2d(64, 128, kernel_size=(3, 3), stride=(2, 2), padding=(1, 1))
            (batchNorm1): BatchNorm2d(128, eps=1e-05, momentum=0.9, affine=True, track_running_stats=True)
          )
          (1): BasicBlock(
            (conv): Conv2d(128, 128, kernel_size=(3, 3), stride=(1, 1), padding=(1, 1))
            (batchNorm1): BatchNorm2d(128, eps=1e-05, momentum=0.9, affine=True, track_running_stats=True)
          )
          (2): BasicBlock(
            (conv): Conv2d(128, 128, kernel_size=(3, 3), stride=(1, 1), padding=(1, 1))
            (batchNorm1): BatchNorm2d(128, eps=1e-05, momentum=0.9, affine=True, track_running_stats=True)
          )
        )
      )
      (2): NetworkBlock(
        (layer): Sequential(
          (0): BasicBlock(
            (conv): Conv2d(128, 256, kernel_size=(3, 3), stride=(2, 2), padding=(1, 1))
            (batchNorm1): BatchNorm2d(256, eps=1e-05, momentum=0.9, affine=True, track_running_stats=True)
          )
          (1): BasicBlock(
            (conv): Conv2d(256, 256, kernel_size=(3, 3), stride=(1, 1), padding=(1, 1))
            (batchNorm1): BatchNorm2d(256, eps=1e-05, momentum=0.9, affine=True, track_running_stats=True)
          )
          (2): BasicBlock(
            (conv): Conv2d(256, 256, kernel_size=(3, 3), stride=(1, 1), padding=(1, 1))
            (batchNorm1): BatchNorm2d(256, eps=1e-05, momentum=0.9, affine=True, track_running_stats=True)
          )
        )
      )
      (3): NetworkBlock(
        (layer): Sequential(
          (0): BasicBlock(
            (conv): Conv2d(256, 256, kernel_size=(3, 3), stride=(2, 2), padding=(1, 1))
            (batchNorm1): BatchNorm2d(256, eps=1e-05, momentum=0.9, affine=True, track_running_stats=True)
          )
          (1): BasicBlock(
            (conv): Conv2d(256, 256, kernel_size=(3, 3), stride=(1, 1), padding=(1, 1))
            (batchNorm1): BatchNorm2d(256, eps=1e-05, momentum=0.9, affine=True, track_running_stats=True)
          )
          (2): BasicBlock(
            (conv): Conv2d(256, 256, kernel_size=(3, 3), stride=(1, 1), padding=(1, 1))
            (batchNorm1): BatchNorm2d(256, eps=1e-05, momentum=0.9, affine=True, track_running_stats=True)
          )
        )
      )
      (4): NetworkBlock(
        (layer): Sequential(
          (0): BasicBlock(
            (conv): Conv2d(256, 256, kernel_size=(3, 3), stride=(2, 2), padding=(1, 1))
            (batchNorm1): BatchNorm2d(256, eps=1e-05, momentum=0.9, affine=True, track_running_stats=True)
          )
          (1): BasicBlock(
            (conv): Conv2d(256, 256, kernel_size=(3, 3), stride=(1, 1), padding=(1, 1))
            (batchNorm1): BatchNorm2d(256, eps=1e-05, momentum=0.9, affine=True, track_running_stats=True)
          )
          (2): BasicBlock(
            (conv): Conv2d(256, 256, kernel_size=(3, 3), stride=(1, 1), padding=(1, 1))
            (batchNorm1): BatchNorm2d(256, eps=1e-05, momentum=0.9, affine=True, track_running_stats=True)
          )
        )
      )
    )
    (backward_blocks): ModuleList(
      (0): NetworkBlock(
        (layer): Sequential(
          (0): BasicBlock(
            (conv): Conv2d(512, 256, kernel_size=(3, 3), stride=(2, 2), padding=(1, 1))
            (batchNorm1): BatchNorm2d(256, eps=1e-05, momentum=0.9, affine=True, track_running_stats=True)
          )
          (1): BasicBlock(
            (conv): Conv2d(256, 256, kernel_size=(3, 3), stride=(1, 1), padding=(1, 1))
            (batchNorm1): BatchNorm2d(256, eps=1e-05, momentum=0.9, affine=True, track_running_stats=True)
          )
          (2): BasicBlock(
            (conv): Conv2d(256, 256, kernel_size=(3, 3), stride=(1, 1), padding=(1, 1))
            (batchNorm1): BatchNorm2d(256, eps=1e-05, momentum=0.9, affine=True, track_running_stats=True)
          )
        )
      )
      (1): NetworkBlock(
        (layer): Sequential(
          (0): BasicBlock(
            (conv): Conv2d(512, 256, kernel_size=(3, 3), stride=(2, 2), padding=(1, 1))
            (batchNorm1): BatchNorm2d(256, eps=1e-05, momentum=0.9, affine=True, track_running_stats=True)
          )
          (1): BasicBlock(
            (conv): Conv2d(256, 256, kernel_size=(3, 3), stride=(1, 1), padding=(1, 1))
            (batchNorm1): BatchNorm2d(256, eps=1e-05, momentum=0.9, affine=True, track_running_stats=True)
          )
          (2): BasicBlock(
            (conv): Conv2d(256, 256, kernel_size=(3, 3), stride=(1, 1), padding=(1, 1))
            (batchNorm1): BatchNorm2d(256, eps=1e-05, momentum=0.9, affine=True, track_running_stats=True)
          )
        )
      )
      (2): NetworkBlock(
        (layer): Sequential(
          (0): BasicBlock(
            (conv): Conv2d(384, 128, kernel_size=(3, 3), stride=(2, 2), padding=(1, 1))
            (batchNorm1): BatchNorm2d(128, eps=1e-05, momentum=0.9, affine=True, track_running_stats=True)
          )
          (1): BasicBlock(
            (conv): Conv2d(128, 128, kernel_size=(3, 3), stride=(1, 1), padding=(1, 1))
            (batchNorm1): BatchNorm2d(128, eps=1e-05, momentum=0.9, affine=True, track_running_stats=True)
          )
          (2): BasicBlock(
            (conv): Conv2d(128, 128, kernel_size=(3, 3), stride=(1, 1), padding=(1, 1))
            (batchNorm1): BatchNorm2d(128, eps=1e-05, momentum=0.9, affine=True, track_running_stats=True)
          )
        )
      )
      (3): NetworkBlock(
        (layer): Sequential(
          (0): BasicBlock(
            (conv): Conv2d(192, 64, kernel_size=(3, 3), stride=(1, 1), padding=(1, 1))
            (batchNorm1): BatchNorm2d(64, eps=1e-05, momentum=0.9, affine=True, track_running_stats=True)
          )
          (1): BasicBlock(
            (conv): Conv2d(64, 64, kernel_size=(3, 3), stride=(1, 1), padding=(1, 1))
            (batchNorm1): BatchNorm2d(64, eps=1e-05, momentum=0.9, affine=True, track_running_stats=True)
          )
        )
      )
    )
    (upsampler): ModuleList(
      (0): Upsample(size=(4, 4), mode=bilinear)
      (1): Upsample(size=(7, 7), mode=bilinear)
      (2): Upsample(size=(14, 14), mode=bilinear)
      (3): Upsample(size=(28, 28), mode=bilinear)
    )
    (conv_1): Conv2d(64, 1, kernel_size=(1, 1), stride=(1, 1))
  )
), 'prec': 0.982}, 'rfgsm': {'denoiser': DataParallel(
  (module): Denoiser(
    (forward_blocks): ModuleList(
      (0): NetworkBlock(
        (layer): Sequential(
          (0): BasicBlock(
            (conv): Conv2d(1, 64, kernel_size=(3, 3), stride=(1, 1), padding=(1, 1))
            (batchNorm1): BatchNorm2d(64, eps=1e-05, momentum=0.9, affine=True, track_running_stats=True)
          )
          (1): BasicBlock(
            (conv): Conv2d(64, 64, kernel_size=(3, 3), stride=(1, 1), padding=(1, 1))
            (batchNorm1): BatchNorm2d(64, eps=1e-05, momentum=0.9, affine=True, track_running_stats=True)
          )
        )
      )
      (1): NetworkBlock(
        (layer): Sequential(
          (0): BasicBlock(
            (conv): Conv2d(64, 128, kernel_size=(3, 3), stride=(2, 2), padding=(1, 1))
            (batchNorm1): BatchNorm2d(128, eps=1e-05, momentum=0.9, affine=True, track_running_stats=True)
          )
          (1): BasicBlock(
            (conv): Conv2d(128, 128, kernel_size=(3, 3), stride=(1, 1), padding=(1, 1))
            (batchNorm1): BatchNorm2d(128, eps=1e-05, momentum=0.9, affine=True, track_running_stats=True)
          )
          (2): BasicBlock(
            (conv): Conv2d(128, 128, kernel_size=(3, 3), stride=(1, 1), padding=(1, 1))
            (batchNorm1): BatchNorm2d(128, eps=1e-05, momentum=0.9, affine=True, track_running_stats=True)
          )
        )
      )
      (2): NetworkBlock(
        (layer): Sequential(
          (0): BasicBlock(
            (conv): Conv2d(128, 256, kernel_size=(3, 3), stride=(2, 2), padding=(1, 1))
            (batchNorm1): BatchNorm2d(256, eps=1e-05, momentum=0.9, affine=True, track_running_stats=True)
          )
          (1): BasicBlock(
            (conv): Conv2d(256, 256, kernel_size=(3, 3), stride=(1, 1), padding=(1, 1))
            (batchNorm1): BatchNorm2d(256, eps=1e-05, momentum=0.9, affine=True, track_running_stats=True)
          )
          (2): BasicBlock(
            (conv): Conv2d(256, 256, kernel_size=(3, 3), stride=(1, 1), padding=(1, 1))
            (batchNorm1): BatchNorm2d(256, eps=1e-05, momentum=0.9, affine=True, track_running_stats=True)
          )
        )
      )
      (3): NetworkBlock(
        (layer): Sequential(
          (0): BasicBlock(
            (conv): Conv2d(256, 256, kernel_size=(3, 3), stride=(2, 2), padding=(1, 1))
            (batchNorm1): BatchNorm2d(256, eps=1e-05, momentum=0.9, affine=True, track_running_stats=True)
          )
          (1): BasicBlock(
            (conv): Conv2d(256, 256, kernel_size=(3, 3), stride=(1, 1), padding=(1, 1))
            (batchNorm1): BatchNorm2d(256, eps=1e-05, momentum=0.9, affine=True, track_running_stats=True)
          )
          (2): BasicBlock(
            (conv): Conv2d(256, 256, kernel_size=(3, 3), stride=(1, 1), padding=(1, 1))
            (batchNorm1): BatchNorm2d(256, eps=1e-05, momentum=0.9, affine=True, track_running_stats=True)
          )
        )
      )
      (4): NetworkBlock(
        (layer): Sequential(
          (0): BasicBlock(
            (conv): Conv2d(256, 256, kernel_size=(3, 3), stride=(2, 2), padding=(1, 1))
            (batchNorm1): BatchNorm2d(256, eps=1e-05, momentum=0.9, affine=True, track_running_stats=True)
          )
          (1): BasicBlock(
            (conv): Conv2d(256, 256, kernel_size=(3, 3), stride=(1, 1), padding=(1, 1))
            (batchNorm1): BatchNorm2d(256, eps=1e-05, momentum=0.9, affine=True, track_running_stats=True)
          )
          (2): BasicBlock(
            (conv): Conv2d(256, 256, kernel_size=(3, 3), stride=(1, 1), padding=(1, 1))
            (batchNorm1): BatchNorm2d(256, eps=1e-05, momentum=0.9, affine=True, track_running_stats=True)
          )
        )
      )
    )
    (backward_blocks): ModuleList(
      (0): NetworkBlock(
        (layer): Sequential(
          (0): BasicBlock(
            (conv): Conv2d(512, 256, kernel_size=(3, 3), stride=(2, 2), padding=(1, 1))
            (batchNorm1): BatchNorm2d(256, eps=1e-05, momentum=0.9, affine=True, track_running_stats=True)
          )
          (1): BasicBlock(
            (conv): Conv2d(256, 256, kernel_size=(3, 3), stride=(1, 1), padding=(1, 1))
            (batchNorm1): BatchNorm2d(256, eps=1e-05, momentum=0.9, affine=True, track_running_stats=True)
          )
          (2): BasicBlock(
            (conv): Conv2d(256, 256, kernel_size=(3, 3), stride=(1, 1), padding=(1, 1))
            (batchNorm1): BatchNorm2d(256, eps=1e-05, momentum=0.9, affine=True, track_running_stats=True)
          )
        )
      )
      (1): NetworkBlock(
        (layer): Sequential(
          (0): BasicBlock(
            (conv): Conv2d(512, 256, kernel_size=(3, 3), stride=(2, 2), padding=(1, 1))
            (batchNorm1): BatchNorm2d(256, eps=1e-05, momentum=0.9, affine=True, track_running_stats=True)
          )
          (1): BasicBlock(
            (conv): Conv2d(256, 256, kernel_size=(3, 3), stride=(1, 1), padding=(1, 1))
            (batchNorm1): BatchNorm2d(256, eps=1e-05, momentum=0.9, affine=True, track_running_stats=True)
          )
          (2): BasicBlock(
            (conv): Conv2d(256, 256, kernel_size=(3, 3), stride=(1, 1), padding=(1, 1))
            (batchNorm1): BatchNorm2d(256, eps=1e-05, momentum=0.9, affine=True, track_running_stats=True)
          )
        )
      )
      (2): NetworkBlock(
        (layer): Sequential(
          (0): BasicBlock(
            (conv): Conv2d(384, 128, kernel_size=(3, 3), stride=(2, 2), padding=(1, 1))
            (batchNorm1): BatchNorm2d(128, eps=1e-05, momentum=0.9, affine=True, track_running_stats=True)
          )
          (1): BasicBlock(
            (conv): Conv2d(128, 128, kernel_size=(3, 3), stride=(1, 1), padding=(1, 1))
            (batchNorm1): BatchNorm2d(128, eps=1e-05, momentum=0.9, affine=True, track_running_stats=True)
          )
          (2): BasicBlock(
            (conv): Conv2d(128, 128, kernel_size=(3, 3), stride=(1, 1), padding=(1, 1))
            (batchNorm1): BatchNorm2d(128, eps=1e-05, momentum=0.9, affine=True, track_running_stats=True)
          )
        )
      )
      (3): NetworkBlock(
        (layer): Sequential(
          (0): BasicBlock(
            (conv): Conv2d(192, 64, kernel_size=(3, 3), stride=(1, 1), padding=(1, 1))
            (batchNorm1): BatchNorm2d(64, eps=1e-05, momentum=0.9, affine=True, track_running_stats=True)
          )
          (1): BasicBlock(
            (conv): Conv2d(64, 64, kernel_size=(3, 3), stride=(1, 1), padding=(1, 1))
            (batchNorm1): BatchNorm2d(64, eps=1e-05, momentum=0.9, affine=True, track_running_stats=True)
          )
        )
      )
    )
    (upsampler): ModuleList(
      (0): Upsample(size=(4, 4), mode=bilinear)
      (1): Upsample(size=(7, 7), mode=bilinear)
      (2): Upsample(size=(14, 14), mode=bilinear)
      (3): Upsample(size=(28, 28), mode=bilinear)
    )
    (conv_1): Conv2d(64, 1, kernel_size=(1, 1), stride=(1, 1))
  )
), 'prec': 0.9835000004768372}, 'cw': {'denoiser': DataParallel(
  (module): Denoiser(
    (forward_blocks): ModuleList(
      (0): NetworkBlock(
        (layer): Sequential(
          (0): BasicBlock(
            (conv): Conv2d(1, 64, kernel_size=(3, 3), stride=(1, 1), padding=(1, 1))
            (batchNorm1): BatchNorm2d(64, eps=1e-05, momentum=0.9, affine=True, track_running_stats=True)
          )
          (1): BasicBlock(
            (conv): Conv2d(64, 64, kernel_size=(3, 3), stride=(1, 1), padding=(1, 1))
            (batchNorm1): BatchNorm2d(64, eps=1e-05, momentum=0.9, affine=True, track_running_stats=True)
          )
        )
      )
      (1): NetworkBlock(
        (layer): Sequential(
          (0): BasicBlock(
            (conv): Conv2d(64, 128, kernel_size=(3, 3), stride=(2, 2), padding=(1, 1))
            (batchNorm1): BatchNorm2d(128, eps=1e-05, momentum=0.9, affine=True, track_running_stats=True)
          )
          (1): BasicBlock(
            (conv): Conv2d(128, 128, kernel_size=(3, 3), stride=(1, 1), padding=(1, 1))
            (batchNorm1): BatchNorm2d(128, eps=1e-05, momentum=0.9, affine=True, track_running_stats=True)
          )
          (2): BasicBlock(
            (conv): Conv2d(128, 128, kernel_size=(3, 3), stride=(1, 1), padding=(1, 1))
            (batchNorm1): BatchNorm2d(128, eps=1e-05, momentum=0.9, affine=True, track_running_stats=True)
          )
        )
      )
      (2): NetworkBlock(
        (layer): Sequential(
          (0): BasicBlock(
            (conv): Conv2d(128, 256, kernel_size=(3, 3), stride=(2, 2), padding=(1, 1))
            (batchNorm1): BatchNorm2d(256, eps=1e-05, momentum=0.9, affine=True, track_running_stats=True)
          )
          (1): BasicBlock(
            (conv): Conv2d(256, 256, kernel_size=(3, 3), stride=(1, 1), padding=(1, 1))
            (batchNorm1): BatchNorm2d(256, eps=1e-05, momentum=0.9, affine=True, track_running_stats=True)
          )
          (2): BasicBlock(
            (conv): Conv2d(256, 256, kernel_size=(3, 3), stride=(1, 1), padding=(1, 1))
            (batchNorm1): BatchNorm2d(256, eps=1e-05, momentum=0.9, affine=True, track_running_stats=True)
          )
        )
      )
      (3): NetworkBlock(
        (layer): Sequential(
          (0): BasicBlock(
            (conv): Conv2d(256, 256, kernel_size=(3, 3), stride=(2, 2), padding=(1, 1))
            (batchNorm1): BatchNorm2d(256, eps=1e-05, momentum=0.9, affine=True, track_running_stats=True)
          )
          (1): BasicBlock(
            (conv): Conv2d(256, 256, kernel_size=(3, 3), stride=(1, 1), padding=(1, 1))
            (batchNorm1): BatchNorm2d(256, eps=1e-05, momentum=0.9, affine=True, track_running_stats=True)
          )
          (2): BasicBlock(
            (conv): Conv2d(256, 256, kernel_size=(3, 3), stride=(1, 1), padding=(1, 1))
            (batchNorm1): BatchNorm2d(256, eps=1e-05, momentum=0.9, affine=True, track_running_stats=True)
          )
        )
      )
      (4): NetworkBlock(
        (layer): Sequential(
          (0): BasicBlock(
            (conv): Conv2d(256, 256, kernel_size=(3, 3), stride=(2, 2), padding=(1, 1))
            (batchNorm1): BatchNorm2d(256, eps=1e-05, momentum=0.9, affine=True, track_running_stats=True)
          )
          (1): BasicBlock(
            (conv): Conv2d(256, 256, kernel_size=(3, 3), stride=(1, 1), padding=(1, 1))
            (batchNorm1): BatchNorm2d(256, eps=1e-05, momentum=0.9, affine=True, track_running_stats=True)
          )
          (2): BasicBlock(
            (conv): Conv2d(256, 256, kernel_size=(3, 3), stride=(1, 1), padding=(1, 1))
            (batchNorm1): BatchNorm2d(256, eps=1e-05, momentum=0.9, affine=True, track_running_stats=True)
          )
        )
      )
    )
    (backward_blocks): ModuleList(
      (0): NetworkBlock(
        (layer): Sequential(
          (0): BasicBlock(
            (conv): Conv2d(512, 256, kernel_size=(3, 3), stride=(2, 2), padding=(1, 1))
            (batchNorm1): BatchNorm2d(256, eps=1e-05, momentum=0.9, affine=True, track_running_stats=True)
          )
          (1): BasicBlock(
            (conv): Conv2d(256, 256, kernel_size=(3, 3), stride=(1, 1), padding=(1, 1))
            (batchNorm1): BatchNorm2d(256, eps=1e-05, momentum=0.9, affine=True, track_running_stats=True)
          )
          (2): BasicBlock(
            (conv): Conv2d(256, 256, kernel_size=(3, 3), stride=(1, 1), padding=(1, 1))
            (batchNorm1): BatchNorm2d(256, eps=1e-05, momentum=0.9, affine=True, track_running_stats=True)
          )
        )
      )
      (1): NetworkBlock(
        (layer): Sequential(
          (0): BasicBlock(
            (conv): Conv2d(512, 256, kernel_size=(3, 3), stride=(2, 2), padding=(1, 1))
            (batchNorm1): BatchNorm2d(256, eps=1e-05, momentum=0.9, affine=True, track_running_stats=True)
          )
          (1): BasicBlock(
            (conv): Conv2d(256, 256, kernel_size=(3, 3), stride=(1, 1), padding=(1, 1))
            (batchNorm1): BatchNorm2d(256, eps=1e-05, momentum=0.9, affine=True, track_running_stats=True)
          )
          (2): BasicBlock(
            (conv): Conv2d(256, 256, kernel_size=(3, 3), stride=(1, 1), padding=(1, 1))
            (batchNorm1): BatchNorm2d(256, eps=1e-05, momentum=0.9, affine=True, track_running_stats=True)
          )
        )
      )
      (2): NetworkBlock(
        (layer): Sequential(
          (0): BasicBlock(
            (conv): Conv2d(384, 128, kernel_size=(3, 3), stride=(2, 2), padding=(1, 1))
            (batchNorm1): BatchNorm2d(128, eps=1e-05, momentum=0.9, affine=True, track_running_stats=True)
          )
          (1): BasicBlock(
            (conv): Conv2d(128, 128, kernel_size=(3, 3), stride=(1, 1), padding=(1, 1))
            (batchNorm1): BatchNorm2d(128, eps=1e-05, momentum=0.9, affine=True, track_running_stats=True)
          )
          (2): BasicBlock(
            (conv): Conv2d(128, 128, kernel_size=(3, 3), stride=(1, 1), padding=(1, 1))
            (batchNorm1): BatchNorm2d(128, eps=1e-05, momentum=0.9, affine=True, track_running_stats=True)
          )
        )
      )
      (3): NetworkBlock(
        (layer): Sequential(
          (0): BasicBlock(
            (conv): Conv2d(192, 64, kernel_size=(3, 3), stride=(1, 1), padding=(1, 1))
            (batchNorm1): BatchNorm2d(64, eps=1e-05, momentum=0.9, affine=True, track_running_stats=True)
          )
          (1): BasicBlock(
            (conv): Conv2d(64, 64, kernel_size=(3, 3), stride=(1, 1), padding=(1, 1))
            (batchNorm1): BatchNorm2d(64, eps=1e-05, momentum=0.9, affine=True, track_running_stats=True)
          )
        )
      )
    )
    (upsampler): ModuleList(
      (0): Upsample(size=(4, 4), mode=bilinear)
      (1): Upsample(size=(7, 7), mode=bilinear)
      (2): Upsample(size=(14, 14), mode=bilinear)
      (3): Upsample(size=(28, 28), mode=bilinear)
    )
    (conv_1): Conv2d(64, 1, kernel_size=(1, 1), stride=(1, 1))
  )
), 'prec': 0.9785}, 'pgd': {'denoiser': DataParallel(
  (module): Denoiser(
    (forward_blocks): ModuleList(
      (0): NetworkBlock(
        (layer): Sequential(
          (0): BasicBlock(
            (conv): Conv2d(1, 64, kernel_size=(3, 3), stride=(1, 1), padding=(1, 1))
            (batchNorm1): BatchNorm2d(64, eps=1e-05, momentum=0.9, affine=True, track_running_stats=True)
          )
          (1): BasicBlock(
            (conv): Conv2d(64, 64, kernel_size=(3, 3), stride=(1, 1), padding=(1, 1))
            (batchNorm1): BatchNorm2d(64, eps=1e-05, momentum=0.9, affine=True, track_running_stats=True)
          )
        )
      )
      (1): NetworkBlock(
        (layer): Sequential(
          (0): BasicBlock(
            (conv): Conv2d(64, 128, kernel_size=(3, 3), stride=(2, 2), padding=(1, 1))
            (batchNorm1): BatchNorm2d(128, eps=1e-05, momentum=0.9, affine=True, track_running_stats=True)
          )
          (1): BasicBlock(
            (conv): Conv2d(128, 128, kernel_size=(3, 3), stride=(1, 1), padding=(1, 1))
            (batchNorm1): BatchNorm2d(128, eps=1e-05, momentum=0.9, affine=True, track_running_stats=True)
          )
          (2): BasicBlock(
            (conv): Conv2d(128, 128, kernel_size=(3, 3), stride=(1, 1), padding=(1, 1))
            (batchNorm1): BatchNorm2d(128, eps=1e-05, momentum=0.9, affine=True, track_running_stats=True)
          )
        )
      )
      (2): NetworkBlock(
        (layer): Sequential(
          (0): BasicBlock(
            (conv): Conv2d(128, 256, kernel_size=(3, 3), stride=(2, 2), padding=(1, 1))
            (batchNorm1): BatchNorm2d(256, eps=1e-05, momentum=0.9, affine=True, track_running_stats=True)
          )
          (1): BasicBlock(
            (conv): Conv2d(256, 256, kernel_size=(3, 3), stride=(1, 1), padding=(1, 1))
            (batchNorm1): BatchNorm2d(256, eps=1e-05, momentum=0.9, affine=True, track_running_stats=True)
          )
          (2): BasicBlock(
            (conv): Conv2d(256, 256, kernel_size=(3, 3), stride=(1, 1), padding=(1, 1))
            (batchNorm1): BatchNorm2d(256, eps=1e-05, momentum=0.9, affine=True, track_running_stats=True)
          )
        )
      )
      (3): NetworkBlock(
        (layer): Sequential(
          (0): BasicBlock(
            (conv): Conv2d(256, 256, kernel_size=(3, 3), stride=(2, 2), padding=(1, 1))
            (batchNorm1): BatchNorm2d(256, eps=1e-05, momentum=0.9, affine=True, track_running_stats=True)
          )
          (1): BasicBlock(
            (conv): Conv2d(256, 256, kernel_size=(3, 3), stride=(1, 1), padding=(1, 1))
            (batchNorm1): BatchNorm2d(256, eps=1e-05, momentum=0.9, affine=True, track_running_stats=True)
          )
          (2): BasicBlock(
            (conv): Conv2d(256, 256, kernel_size=(3, 3), stride=(1, 1), padding=(1, 1))
            (batchNorm1): BatchNorm2d(256, eps=1e-05, momentum=0.9, affine=True, track_running_stats=True)
          )
        )
      )
      (4): NetworkBlock(
        (layer): Sequential(
          (0): BasicBlock(
            (conv): Conv2d(256, 256, kernel_size=(3, 3), stride=(2, 2), padding=(1, 1))
            (batchNorm1): BatchNorm2d(256, eps=1e-05, momentum=0.9, affine=True, track_running_stats=True)
          )
          (1): BasicBlock(
            (conv): Conv2d(256, 256, kernel_size=(3, 3), stride=(1, 1), padding=(1, 1))
            (batchNorm1): BatchNorm2d(256, eps=1e-05, momentum=0.9, affine=True, track_running_stats=True)
          )
          (2): BasicBlock(
            (conv): Conv2d(256, 256, kernel_size=(3, 3), stride=(1, 1), padding=(1, 1))
            (batchNorm1): BatchNorm2d(256, eps=1e-05, momentum=0.9, affine=True, track_running_stats=True)
          )
        )
      )
    )
    (backward_blocks): ModuleList(
      (0): NetworkBlock(
        (layer): Sequential(
          (0): BasicBlock(
            (conv): Conv2d(512, 256, kernel_size=(3, 3), stride=(2, 2), padding=(1, 1))
            (batchNorm1): BatchNorm2d(256, eps=1e-05, momentum=0.9, affine=True, track_running_stats=True)
          )
          (1): BasicBlock(
            (conv): Conv2d(256, 256, kernel_size=(3, 3), stride=(1, 1), padding=(1, 1))
            (batchNorm1): BatchNorm2d(256, eps=1e-05, momentum=0.9, affine=True, track_running_stats=True)
          )
          (2): BasicBlock(
            (conv): Conv2d(256, 256, kernel_size=(3, 3), stride=(1, 1), padding=(1, 1))
            (batchNorm1): BatchNorm2d(256, eps=1e-05, momentum=0.9, affine=True, track_running_stats=True)
          )
        )
      )
      (1): NetworkBlock(
        (layer): Sequential(
          (0): BasicBlock(
            (conv): Conv2d(512, 256, kernel_size=(3, 3), stride=(2, 2), padding=(1, 1))
            (batchNorm1): BatchNorm2d(256, eps=1e-05, momentum=0.9, affine=True, track_running_stats=True)
          )
          (1): BasicBlock(
            (conv): Conv2d(256, 256, kernel_size=(3, 3), stride=(1, 1), padding=(1, 1))
            (batchNorm1): BatchNorm2d(256, eps=1e-05, momentum=0.9, affine=True, track_running_stats=True)
          )
          (2): BasicBlock(
            (conv): Conv2d(256, 256, kernel_size=(3, 3), stride=(1, 1), padding=(1, 1))
            (batchNorm1): BatchNorm2d(256, eps=1e-05, momentum=0.9, affine=True, track_running_stats=True)
          )
        )
      )
      (2): NetworkBlock(
        (layer): Sequential(
          (0): BasicBlock(
            (conv): Conv2d(384, 128, kernel_size=(3, 3), stride=(2, 2), padding=(1, 1))
            (batchNorm1): BatchNorm2d(128, eps=1e-05, momentum=0.9, affine=True, track_running_stats=True)
          )
          (1): BasicBlock(
            (conv): Conv2d(128, 128, kernel_size=(3, 3), stride=(1, 1), padding=(1, 1))
            (batchNorm1): BatchNorm2d(128, eps=1e-05, momentum=0.9, affine=True, track_running_stats=True)
          )
          (2): BasicBlock(
            (conv): Conv2d(128, 128, kernel_size=(3, 3), stride=(1, 1), padding=(1, 1))
            (batchNorm1): BatchNorm2d(128, eps=1e-05, momentum=0.9, affine=True, track_running_stats=True)
          )
        )
      )
      (3): NetworkBlock(
        (layer): Sequential(
          (0): BasicBlock(
            (conv): Conv2d(192, 64, kernel_size=(3, 3), stride=(1, 1), padding=(1, 1))
            (batchNorm1): BatchNorm2d(64, eps=1e-05, momentum=0.9, affine=True, track_running_stats=True)
          )
          (1): BasicBlock(
            (conv): Conv2d(64, 64, kernel_size=(3, 3), stride=(1, 1), padding=(1, 1))
            (batchNorm1): BatchNorm2d(64, eps=1e-05, momentum=0.9, affine=True, track_running_stats=True)
          )
        )
      )
    )
    (upsampler): ModuleList(
      (0): Upsample(size=(4, 4), mode=bilinear)
      (1): Upsample(size=(7, 7), mode=bilinear)
      (2): Upsample(size=(14, 14), mode=bilinear)
      (3): Upsample(size=(28, 28), mode=bilinear)
    )
    (conv_1): Conv2d(64, 1, kernel_size=(1, 1), stride=(1, 1))
  )
), 'prec': 0.983}, 'tpgd': {'denoiser': DataParallel(
  (module): Denoiser(
    (forward_blocks): ModuleList(
      (0): NetworkBlock(
        (layer): Sequential(
          (0): BasicBlock(
            (conv): Conv2d(1, 64, kernel_size=(3, 3), stride=(1, 1), padding=(1, 1))
            (batchNorm1): BatchNorm2d(64, eps=1e-05, momentum=0.9, affine=True, track_running_stats=True)
          )
          (1): BasicBlock(
            (conv): Conv2d(64, 64, kernel_size=(3, 3), stride=(1, 1), padding=(1, 1))
            (batchNorm1): BatchNorm2d(64, eps=1e-05, momentum=0.9, affine=True, track_running_stats=True)
          )
        )
      )
      (1): NetworkBlock(
        (layer): Sequential(
          (0): BasicBlock(
            (conv): Conv2d(64, 128, kernel_size=(3, 3), stride=(2, 2), padding=(1, 1))
            (batchNorm1): BatchNorm2d(128, eps=1e-05, momentum=0.9, affine=True, track_running_stats=True)
          )
          (1): BasicBlock(
            (conv): Conv2d(128, 128, kernel_size=(3, 3), stride=(1, 1), padding=(1, 1))
            (batchNorm1): BatchNorm2d(128, eps=1e-05, momentum=0.9, affine=True, track_running_stats=True)
          )
          (2): BasicBlock(
            (conv): Conv2d(128, 128, kernel_size=(3, 3), stride=(1, 1), padding=(1, 1))
            (batchNorm1): BatchNorm2d(128, eps=1e-05, momentum=0.9, affine=True, track_running_stats=True)
          )
        )
      )
      (2): NetworkBlock(
        (layer): Sequential(
          (0): BasicBlock(
            (conv): Conv2d(128, 256, kernel_size=(3, 3), stride=(2, 2), padding=(1, 1))
            (batchNorm1): BatchNorm2d(256, eps=1e-05, momentum=0.9, affine=True, track_running_stats=True)
          )
          (1): BasicBlock(
            (conv): Conv2d(256, 256, kernel_size=(3, 3), stride=(1, 1), padding=(1, 1))
            (batchNorm1): BatchNorm2d(256, eps=1e-05, momentum=0.9, affine=True, track_running_stats=True)
          )
          (2): BasicBlock(
            (conv): Conv2d(256, 256, kernel_size=(3, 3), stride=(1, 1), padding=(1, 1))
            (batchNorm1): BatchNorm2d(256, eps=1e-05, momentum=0.9, affine=True, track_running_stats=True)
          )
        )
      )
      (3): NetworkBlock(
        (layer): Sequential(
          (0): BasicBlock(
            (conv): Conv2d(256, 256, kernel_size=(3, 3), stride=(2, 2), padding=(1, 1))
            (batchNorm1): BatchNorm2d(256, eps=1e-05, momentum=0.9, affine=True, track_running_stats=True)
          )
          (1): BasicBlock(
            (conv): Conv2d(256, 256, kernel_size=(3, 3), stride=(1, 1), padding=(1, 1))
            (batchNorm1): BatchNorm2d(256, eps=1e-05, momentum=0.9, affine=True, track_running_stats=True)
          )
          (2): BasicBlock(
            (conv): Conv2d(256, 256, kernel_size=(3, 3), stride=(1, 1), padding=(1, 1))
            (batchNorm1): BatchNorm2d(256, eps=1e-05, momentum=0.9, affine=True, track_running_stats=True)
          )
        )
      )
      (4): NetworkBlock(
        (layer): Sequential(
          (0): BasicBlock(
            (conv): Conv2d(256, 256, kernel_size=(3, 3), stride=(2, 2), padding=(1, 1))
            (batchNorm1): BatchNorm2d(256, eps=1e-05, momentum=0.9, affine=True, track_running_stats=True)
          )
          (1): BasicBlock(
            (conv): Conv2d(256, 256, kernel_size=(3, 3), stride=(1, 1), padding=(1, 1))
            (batchNorm1): BatchNorm2d(256, eps=1e-05, momentum=0.9, affine=True, track_running_stats=True)
          )
          (2): BasicBlock(
            (conv): Conv2d(256, 256, kernel_size=(3, 3), stride=(1, 1), padding=(1, 1))
            (batchNorm1): BatchNorm2d(256, eps=1e-05, momentum=0.9, affine=True, track_running_stats=True)
          )
        )
      )
    )
    (backward_blocks): ModuleList(
      (0): NetworkBlock(
        (layer): Sequential(
          (0): BasicBlock(
            (conv): Conv2d(512, 256, kernel_size=(3, 3), stride=(2, 2), padding=(1, 1))
            (batchNorm1): BatchNorm2d(256, eps=1e-05, momentum=0.9, affine=True, track_running_stats=True)
          )
          (1): BasicBlock(
            (conv): Conv2d(256, 256, kernel_size=(3, 3), stride=(1, 1), padding=(1, 1))
            (batchNorm1): BatchNorm2d(256, eps=1e-05, momentum=0.9, affine=True, track_running_stats=True)
          )
          (2): BasicBlock(
            (conv): Conv2d(256, 256, kernel_size=(3, 3), stride=(1, 1), padding=(1, 1))
            (batchNorm1): BatchNorm2d(256, eps=1e-05, momentum=0.9, affine=True, track_running_stats=True)
          )
        )
      )
      (1): NetworkBlock(
        (layer): Sequential(
          (0): BasicBlock(
            (conv): Conv2d(512, 256, kernel_size=(3, 3), stride=(2, 2), padding=(1, 1))
            (batchNorm1): BatchNorm2d(256, eps=1e-05, momentum=0.9, affine=True, track_running_stats=True)
          )
          (1): BasicBlock(
            (conv): Conv2d(256, 256, kernel_size=(3, 3), stride=(1, 1), padding=(1, 1))
            (batchNorm1): BatchNorm2d(256, eps=1e-05, momentum=0.9, affine=True, track_running_stats=True)
          )
          (2): BasicBlock(
            (conv): Conv2d(256, 256, kernel_size=(3, 3), stride=(1, 1), padding=(1, 1))
            (batchNorm1): BatchNorm2d(256, eps=1e-05, momentum=0.9, affine=True, track_running_stats=True)
          )
        )
      )
      (2): NetworkBlock(
        (layer): Sequential(
          (0): BasicBlock(
            (conv): Conv2d(384, 128, kernel_size=(3, 3), stride=(2, 2), padding=(1, 1))
            (batchNorm1): BatchNorm2d(128, eps=1e-05, momentum=0.9, affine=True, track_running_stats=True)
          )
          (1): BasicBlock(
            (conv): Conv2d(128, 128, kernel_size=(3, 3), stride=(1, 1), padding=(1, 1))
            (batchNorm1): BatchNorm2d(128, eps=1e-05, momentum=0.9, affine=True, track_running_stats=True)
          )
          (2): BasicBlock(
            (conv): Conv2d(128, 128, kernel_size=(3, 3), stride=(1, 1), padding=(1, 1))
            (batchNorm1): BatchNorm2d(128, eps=1e-05, momentum=0.9, affine=True, track_running_stats=True)
          )
        )
      )
      (3): NetworkBlock(
        (layer): Sequential(
          (0): BasicBlock(
            (conv): Conv2d(192, 64, kernel_size=(3, 3), stride=(1, 1), padding=(1, 1))
            (batchNorm1): BatchNorm2d(64, eps=1e-05, momentum=0.9, affine=True, track_running_stats=True)
          )
          (1): BasicBlock(
            (conv): Conv2d(64, 64, kernel_size=(3, 3), stride=(1, 1), padding=(1, 1))
            (batchNorm1): BatchNorm2d(64, eps=1e-05, momentum=0.9, affine=True, track_running_stats=True)
          )
        )
      )
    )
    (upsampler): ModuleList(
      (0): Upsample(size=(4, 4), mode=bilinear)
      (1): Upsample(size=(7, 7), mode=bilinear)
      (2): Upsample(size=(14, 14), mode=bilinear)
      (3): Upsample(size=(28, 28), mode=bilinear)
    )
    (conv_1): Conv2d(64, 1, kernel_size=(1, 1), stride=(1, 1))
  )
), 'prec': 0.98}, 'mifgsm': {'denoiser': DataParallel(
  (module): Denoiser(
    (forward_blocks): ModuleList(
      (0): NetworkBlock(
        (layer): Sequential(
          (0): BasicBlock(
            (conv): Conv2d(1, 64, kernel_size=(3, 3), stride=(1, 1), padding=(1, 1))
            (batchNorm1): BatchNorm2d(64, eps=1e-05, momentum=0.9, affine=True, track_running_stats=True)
          )
          (1): BasicBlock(
            (conv): Conv2d(64, 64, kernel_size=(3, 3), stride=(1, 1), padding=(1, 1))
            (batchNorm1): BatchNorm2d(64, eps=1e-05, momentum=0.9, affine=True, track_running_stats=True)
          )
        )
      )
      (1): NetworkBlock(
        (layer): Sequential(
          (0): BasicBlock(
            (conv): Conv2d(64, 128, kernel_size=(3, 3), stride=(2, 2), padding=(1, 1))
            (batchNorm1): BatchNorm2d(128, eps=1e-05, momentum=0.9, affine=True, track_running_stats=True)
          )
          (1): BasicBlock(
            (conv): Conv2d(128, 128, kernel_size=(3, 3), stride=(1, 1), padding=(1, 1))
            (batchNorm1): BatchNorm2d(128, eps=1e-05, momentum=0.9, affine=True, track_running_stats=True)
          )
          (2): BasicBlock(
            (conv): Conv2d(128, 128, kernel_size=(3, 3), stride=(1, 1), padding=(1, 1))
            (batchNorm1): BatchNorm2d(128, eps=1e-05, momentum=0.9, affine=True, track_running_stats=True)
          )
        )
      )
      (2): NetworkBlock(
        (layer): Sequential(
          (0): BasicBlock(
            (conv): Conv2d(128, 256, kernel_size=(3, 3), stride=(2, 2), padding=(1, 1))
            (batchNorm1): BatchNorm2d(256, eps=1e-05, momentum=0.9, affine=True, track_running_stats=True)
          )
          (1): BasicBlock(
            (conv): Conv2d(256, 256, kernel_size=(3, 3), stride=(1, 1), padding=(1, 1))
            (batchNorm1): BatchNorm2d(256, eps=1e-05, momentum=0.9, affine=True, track_running_stats=True)
          )
          (2): BasicBlock(
            (conv): Conv2d(256, 256, kernel_size=(3, 3), stride=(1, 1), padding=(1, 1))
            (batchNorm1): BatchNorm2d(256, eps=1e-05, momentum=0.9, affine=True, track_running_stats=True)
          )
        )
      )
      (3): NetworkBlock(
        (layer): Sequential(
          (0): BasicBlock(
            (conv): Conv2d(256, 256, kernel_size=(3, 3), stride=(2, 2), padding=(1, 1))
            (batchNorm1): BatchNorm2d(256, eps=1e-05, momentum=0.9, affine=True, track_running_stats=True)
          )
          (1): BasicBlock(
            (conv): Conv2d(256, 256, kernel_size=(3, 3), stride=(1, 1), padding=(1, 1))
            (batchNorm1): BatchNorm2d(256, eps=1e-05, momentum=0.9, affine=True, track_running_stats=True)
          )
          (2): BasicBlock(
            (conv): Conv2d(256, 256, kernel_size=(3, 3), stride=(1, 1), padding=(1, 1))
            (batchNorm1): BatchNorm2d(256, eps=1e-05, momentum=0.9, affine=True, track_running_stats=True)
          )
        )
      )
      (4): NetworkBlock(
        (layer): Sequential(
          (0): BasicBlock(
            (conv): Conv2d(256, 256, kernel_size=(3, 3), stride=(2, 2), padding=(1, 1))
            (batchNorm1): BatchNorm2d(256, eps=1e-05, momentum=0.9, affine=True, track_running_stats=True)
          )
          (1): BasicBlock(
            (conv): Conv2d(256, 256, kernel_size=(3, 3), stride=(1, 1), padding=(1, 1))
            (batchNorm1): BatchNorm2d(256, eps=1e-05, momentum=0.9, affine=True, track_running_stats=True)
          )
          (2): BasicBlock(
            (conv): Conv2d(256, 256, kernel_size=(3, 3), stride=(1, 1), padding=(1, 1))
            (batchNorm1): BatchNorm2d(256, eps=1e-05, momentum=0.9, affine=True, track_running_stats=True)
          )
        )
      )
    )
    (backward_blocks): ModuleList(
      (0): NetworkBlock(
        (layer): Sequential(
          (0): BasicBlock(
            (conv): Conv2d(512, 256, kernel_size=(3, 3), stride=(2, 2), padding=(1, 1))
            (batchNorm1): BatchNorm2d(256, eps=1e-05, momentum=0.9, affine=True, track_running_stats=True)
          )
          (1): BasicBlock(
            (conv): Conv2d(256, 256, kernel_size=(3, 3), stride=(1, 1), padding=(1, 1))
            (batchNorm1): BatchNorm2d(256, eps=1e-05, momentum=0.9, affine=True, track_running_stats=True)
          )
          (2): BasicBlock(
            (conv): Conv2d(256, 256, kernel_size=(3, 3), stride=(1, 1), padding=(1, 1))
            (batchNorm1): BatchNorm2d(256, eps=1e-05, momentum=0.9, affine=True, track_running_stats=True)
          )
        )
      )
      (1): NetworkBlock(
        (layer): Sequential(
          (0): BasicBlock(
            (conv): Conv2d(512, 256, kernel_size=(3, 3), stride=(2, 2), padding=(1, 1))
            (batchNorm1): BatchNorm2d(256, eps=1e-05, momentum=0.9, affine=True, track_running_stats=True)
          )
          (1): BasicBlock(
            (conv): Conv2d(256, 256, kernel_size=(3, 3), stride=(1, 1), padding=(1, 1))
            (batchNorm1): BatchNorm2d(256, eps=1e-05, momentum=0.9, affine=True, track_running_stats=True)
          )
          (2): BasicBlock(
            (conv): Conv2d(256, 256, kernel_size=(3, 3), stride=(1, 1), padding=(1, 1))
            (batchNorm1): BatchNorm2d(256, eps=1e-05, momentum=0.9, affine=True, track_running_stats=True)
          )
        )
      )
      (2): NetworkBlock(
        (layer): Sequential(
          (0): BasicBlock(
            (conv): Conv2d(384, 128, kernel_size=(3, 3), stride=(2, 2), padding=(1, 1))
            (batchNorm1): BatchNorm2d(128, eps=1e-05, momentum=0.9, affine=True, track_running_stats=True)
          )
          (1): BasicBlock(
            (conv): Conv2d(128, 128, kernel_size=(3, 3), stride=(1, 1), padding=(1, 1))
            (batchNorm1): BatchNorm2d(128, eps=1e-05, momentum=0.9, affine=True, track_running_stats=True)
          )
          (2): BasicBlock(
            (conv): Conv2d(128, 128, kernel_size=(3, 3), stride=(1, 1), padding=(1, 1))
            (batchNorm1): BatchNorm2d(128, eps=1e-05, momentum=0.9, affine=True, track_running_stats=True)
          )
        )
      )
      (3): NetworkBlock(
        (layer): Sequential(
          (0): BasicBlock(
            (conv): Conv2d(192, 64, kernel_size=(3, 3), stride=(1, 1), padding=(1, 1))
            (batchNorm1): BatchNorm2d(64, eps=1e-05, momentum=0.9, affine=True, track_running_stats=True)
          )
          (1): BasicBlock(
            (conv): Conv2d(64, 64, kernel_size=(3, 3), stride=(1, 1), padding=(1, 1))
            (batchNorm1): BatchNorm2d(64, eps=1e-05, momentum=0.9, affine=True, track_running_stats=True)
          )
        )
      )
    )
    (upsampler): ModuleList(
      (0): Upsample(size=(4, 4), mode=bilinear)
      (1): Upsample(size=(7, 7), mode=bilinear)
      (2): Upsample(size=(14, 14), mode=bilinear)
      (3): Upsample(size=(28, 28), mode=bilinear)
    )
    (conv_1): Conv2d(64, 1, kernel_size=(1, 1), stride=(1, 1))
  )
), 'prec': 0.982}, 'autopgd': {'denoiser': DataParallel(
  (module): Denoiser(
    (forward_blocks): ModuleList(
      (0): NetworkBlock(
        (layer): Sequential(
          (0): BasicBlock(
            (conv): Conv2d(1, 64, kernel_size=(3, 3), stride=(1, 1), padding=(1, 1))
            (batchNorm1): BatchNorm2d(64, eps=1e-05, momentum=0.9, affine=True, track_running_stats=True)
          )
          (1): BasicBlock(
            (conv): Conv2d(64, 64, kernel_size=(3, 3), stride=(1, 1), padding=(1, 1))
            (batchNorm1): BatchNorm2d(64, eps=1e-05, momentum=0.9, affine=True, track_running_stats=True)
          )
        )
      )
      (1): NetworkBlock(
        (layer): Sequential(
          (0): BasicBlock(
            (conv): Conv2d(64, 128, kernel_size=(3, 3), stride=(2, 2), padding=(1, 1))
            (batchNorm1): BatchNorm2d(128, eps=1e-05, momentum=0.9, affine=True, track_running_stats=True)
          )
          (1): BasicBlock(
            (conv): Conv2d(128, 128, kernel_size=(3, 3), stride=(1, 1), padding=(1, 1))
            (batchNorm1): BatchNorm2d(128, eps=1e-05, momentum=0.9, affine=True, track_running_stats=True)
          )
          (2): BasicBlock(
            (conv): Conv2d(128, 128, kernel_size=(3, 3), stride=(1, 1), padding=(1, 1))
            (batchNorm1): BatchNorm2d(128, eps=1e-05, momentum=0.9, affine=True, track_running_stats=True)
          )
        )
      )
      (2): NetworkBlock(
        (layer): Sequential(
          (0): BasicBlock(
            (conv): Conv2d(128, 256, kernel_size=(3, 3), stride=(2, 2), padding=(1, 1))
            (batchNorm1): BatchNorm2d(256, eps=1e-05, momentum=0.9, affine=True, track_running_stats=True)
          )
          (1): BasicBlock(
            (conv): Conv2d(256, 256, kernel_size=(3, 3), stride=(1, 1), padding=(1, 1))
            (batchNorm1): BatchNorm2d(256, eps=1e-05, momentum=0.9, affine=True, track_running_stats=True)
          )
          (2): BasicBlock(
            (conv): Conv2d(256, 256, kernel_size=(3, 3), stride=(1, 1), padding=(1, 1))
            (batchNorm1): BatchNorm2d(256, eps=1e-05, momentum=0.9, affine=True, track_running_stats=True)
          )
        )
      )
      (3): NetworkBlock(
        (layer): Sequential(
          (0): BasicBlock(
            (conv): Conv2d(256, 256, kernel_size=(3, 3), stride=(2, 2), padding=(1, 1))
            (batchNorm1): BatchNorm2d(256, eps=1e-05, momentum=0.9, affine=True, track_running_stats=True)
          )
          (1): BasicBlock(
            (conv): Conv2d(256, 256, kernel_size=(3, 3), stride=(1, 1), padding=(1, 1))
            (batchNorm1): BatchNorm2d(256, eps=1e-05, momentum=0.9, affine=True, track_running_stats=True)
          )
          (2): BasicBlock(
            (conv): Conv2d(256, 256, kernel_size=(3, 3), stride=(1, 1), padding=(1, 1))
            (batchNorm1): BatchNorm2d(256, eps=1e-05, momentum=0.9, affine=True, track_running_stats=True)
          )
        )
      )
      (4): NetworkBlock(
        (layer): Sequential(
          (0): BasicBlock(
            (conv): Conv2d(256, 256, kernel_size=(3, 3), stride=(2, 2), padding=(1, 1))
            (batchNorm1): BatchNorm2d(256, eps=1e-05, momentum=0.9, affine=True, track_running_stats=True)
          )
          (1): BasicBlock(
            (conv): Conv2d(256, 256, kernel_size=(3, 3), stride=(1, 1), padding=(1, 1))
            (batchNorm1): BatchNorm2d(256, eps=1e-05, momentum=0.9, affine=True, track_running_stats=True)
          )
          (2): BasicBlock(
            (conv): Conv2d(256, 256, kernel_size=(3, 3), stride=(1, 1), padding=(1, 1))
            (batchNorm1): BatchNorm2d(256, eps=1e-05, momentum=0.9, affine=True, track_running_stats=True)
          )
        )
      )
    )
    (backward_blocks): ModuleList(
      (0): NetworkBlock(
        (layer): Sequential(
          (0): BasicBlock(
            (conv): Conv2d(512, 256, kernel_size=(3, 3), stride=(2, 2), padding=(1, 1))
            (batchNorm1): BatchNorm2d(256, eps=1e-05, momentum=0.9, affine=True, track_running_stats=True)
          )
          (1): BasicBlock(
            (conv): Conv2d(256, 256, kernel_size=(3, 3), stride=(1, 1), padding=(1, 1))
            (batchNorm1): BatchNorm2d(256, eps=1e-05, momentum=0.9, affine=True, track_running_stats=True)
          )
          (2): BasicBlock(
            (conv): Conv2d(256, 256, kernel_size=(3, 3), stride=(1, 1), padding=(1, 1))
            (batchNorm1): BatchNorm2d(256, eps=1e-05, momentum=0.9, affine=True, track_running_stats=True)
          )
        )
      )
      (1): NetworkBlock(
        (layer): Sequential(
          (0): BasicBlock(
            (conv): Conv2d(512, 256, kernel_size=(3, 3), stride=(2, 2), padding=(1, 1))
            (batchNorm1): BatchNorm2d(256, eps=1e-05, momentum=0.9, affine=True, track_running_stats=True)
          )
          (1): BasicBlock(
            (conv): Conv2d(256, 256, kernel_size=(3, 3), stride=(1, 1), padding=(1, 1))
            (batchNorm1): BatchNorm2d(256, eps=1e-05, momentum=0.9, affine=True, track_running_stats=True)
          )
          (2): BasicBlock(
            (conv): Conv2d(256, 256, kernel_size=(3, 3), stride=(1, 1), padding=(1, 1))
            (batchNorm1): BatchNorm2d(256, eps=1e-05, momentum=0.9, affine=True, track_running_stats=True)
          )
        )
      )
      (2): NetworkBlock(
        (layer): Sequential(
          (0): BasicBlock(
            (conv): Conv2d(384, 128, kernel_size=(3, 3), stride=(2, 2), padding=(1, 1))
            (batchNorm1): BatchNorm2d(128, eps=1e-05, momentum=0.9, affine=True, track_running_stats=True)
          )
          (1): BasicBlock(
            (conv): Conv2d(128, 128, kernel_size=(3, 3), stride=(1, 1), padding=(1, 1))
            (batchNorm1): BatchNorm2d(128, eps=1e-05, momentum=0.9, affine=True, track_running_stats=True)
          )
          (2): BasicBlock(
            (conv): Conv2d(128, 128, kernel_size=(3, 3), stride=(1, 1), padding=(1, 1))
            (batchNorm1): BatchNorm2d(128, eps=1e-05, momentum=0.9, affine=True, track_running_stats=True)
          )
        )
      )
      (3): NetworkBlock(
        (layer): Sequential(
          (0): BasicBlock(
            (conv): Conv2d(192, 64, kernel_size=(3, 3), stride=(1, 1), padding=(1, 1))
            (batchNorm1): BatchNorm2d(64, eps=1e-05, momentum=0.9, affine=True, track_running_stats=True)
          )
          (1): BasicBlock(
            (conv): Conv2d(64, 64, kernel_size=(3, 3), stride=(1, 1), padding=(1, 1))
            (batchNorm1): BatchNorm2d(64, eps=1e-05, momentum=0.9, affine=True, track_running_stats=True)
          )
        )
      )
    )
    (upsampler): ModuleList(
      (0): Upsample(size=(4, 4), mode=bilinear)
      (1): Upsample(size=(7, 7), mode=bilinear)
      (2): Upsample(size=(14, 14), mode=bilinear)
      (3): Upsample(size=(28, 28), mode=bilinear)
    )
    (conv_1): Conv2d(64, 1, kernel_size=(1, 1), stride=(1, 1))
  )
), 'prec': 0.991}, 'square': {'denoiser': DataParallel(
  (module): Denoiser(
    (forward_blocks): ModuleList(
      (0): NetworkBlock(
        (layer): Sequential(
          (0): BasicBlock(
            (conv): Conv2d(1, 64, kernel_size=(3, 3), stride=(1, 1), padding=(1, 1))
            (batchNorm1): BatchNorm2d(64, eps=1e-05, momentum=0.9, affine=True, track_running_stats=True)
          )
          (1): BasicBlock(
            (conv): Conv2d(64, 64, kernel_size=(3, 3), stride=(1, 1), padding=(1, 1))
            (batchNorm1): BatchNorm2d(64, eps=1e-05, momentum=0.9, affine=True, track_running_stats=True)
          )
        )
      )
      (1): NetworkBlock(
        (layer): Sequential(
          (0): BasicBlock(
            (conv): Conv2d(64, 128, kernel_size=(3, 3), stride=(2, 2), padding=(1, 1))
            (batchNorm1): BatchNorm2d(128, eps=1e-05, momentum=0.9, affine=True, track_running_stats=True)
          )
          (1): BasicBlock(
            (conv): Conv2d(128, 128, kernel_size=(3, 3), stride=(1, 1), padding=(1, 1))
            (batchNorm1): BatchNorm2d(128, eps=1e-05, momentum=0.9, affine=True, track_running_stats=True)
          )
          (2): BasicBlock(
            (conv): Conv2d(128, 128, kernel_size=(3, 3), stride=(1, 1), padding=(1, 1))
            (batchNorm1): BatchNorm2d(128, eps=1e-05, momentum=0.9, affine=True, track_running_stats=True)
          )
        )
      )
      (2): NetworkBlock(
        (layer): Sequential(
          (0): BasicBlock(
            (conv): Conv2d(128, 256, kernel_size=(3, 3), stride=(2, 2), padding=(1, 1))
            (batchNorm1): BatchNorm2d(256, eps=1e-05, momentum=0.9, affine=True, track_running_stats=True)
          )
          (1): BasicBlock(
            (conv): Conv2d(256, 256, kernel_size=(3, 3), stride=(1, 1), padding=(1, 1))
            (batchNorm1): BatchNorm2d(256, eps=1e-05, momentum=0.9, affine=True, track_running_stats=True)
          )
          (2): BasicBlock(
            (conv): Conv2d(256, 256, kernel_size=(3, 3), stride=(1, 1), padding=(1, 1))
            (batchNorm1): BatchNorm2d(256, eps=1e-05, momentum=0.9, affine=True, track_running_stats=True)
          )
        )
      )
      (3): NetworkBlock(
        (layer): Sequential(
          (0): BasicBlock(
            (conv): Conv2d(256, 256, kernel_size=(3, 3), stride=(2, 2), padding=(1, 1))
            (batchNorm1): BatchNorm2d(256, eps=1e-05, momentum=0.9, affine=True, track_running_stats=True)
          )
          (1): BasicBlock(
            (conv): Conv2d(256, 256, kernel_size=(3, 3), stride=(1, 1), padding=(1, 1))
            (batchNorm1): BatchNorm2d(256, eps=1e-05, momentum=0.9, affine=True, track_running_stats=True)
          )
          (2): BasicBlock(
            (conv): Conv2d(256, 256, kernel_size=(3, 3), stride=(1, 1), padding=(1, 1))
            (batchNorm1): BatchNorm2d(256, eps=1e-05, momentum=0.9, affine=True, track_running_stats=True)
          )
        )
      )
      (4): NetworkBlock(
        (layer): Sequential(
          (0): BasicBlock(
            (conv): Conv2d(256, 256, kernel_size=(3, 3), stride=(2, 2), padding=(1, 1))
            (batchNorm1): BatchNorm2d(256, eps=1e-05, momentum=0.9, affine=True, track_running_stats=True)
          )
          (1): BasicBlock(
            (conv): Conv2d(256, 256, kernel_size=(3, 3), stride=(1, 1), padding=(1, 1))
            (batchNorm1): BatchNorm2d(256, eps=1e-05, momentum=0.9, affine=True, track_running_stats=True)
          )
          (2): BasicBlock(
            (conv): Conv2d(256, 256, kernel_size=(3, 3), stride=(1, 1), padding=(1, 1))
            (batchNorm1): BatchNorm2d(256, eps=1e-05, momentum=0.9, affine=True, track_running_stats=True)
          )
        )
      )
    )
    (backward_blocks): ModuleList(
      (0): NetworkBlock(
        (layer): Sequential(
          (0): BasicBlock(
            (conv): Conv2d(512, 256, kernel_size=(3, 3), stride=(2, 2), padding=(1, 1))
            (batchNorm1): BatchNorm2d(256, eps=1e-05, momentum=0.9, affine=True, track_running_stats=True)
          )
          (1): BasicBlock(
            (conv): Conv2d(256, 256, kernel_size=(3, 3), stride=(1, 1), padding=(1, 1))
            (batchNorm1): BatchNorm2d(256, eps=1e-05, momentum=0.9, affine=True, track_running_stats=True)
          )
          (2): BasicBlock(
            (conv): Conv2d(256, 256, kernel_size=(3, 3), stride=(1, 1), padding=(1, 1))
            (batchNorm1): BatchNorm2d(256, eps=1e-05, momentum=0.9, affine=True, track_running_stats=True)
          )
        )
      )
      (1): NetworkBlock(
        (layer): Sequential(
          (0): BasicBlock(
            (conv): Conv2d(512, 256, kernel_size=(3, 3), stride=(2, 2), padding=(1, 1))
            (batchNorm1): BatchNorm2d(256, eps=1e-05, momentum=0.9, affine=True, track_running_stats=True)
          )
          (1): BasicBlock(
            (conv): Conv2d(256, 256, kernel_size=(3, 3), stride=(1, 1), padding=(1, 1))
            (batchNorm1): BatchNorm2d(256, eps=1e-05, momentum=0.9, affine=True, track_running_stats=True)
          )
          (2): BasicBlock(
            (conv): Conv2d(256, 256, kernel_size=(3, 3), stride=(1, 1), padding=(1, 1))
            (batchNorm1): BatchNorm2d(256, eps=1e-05, momentum=0.9, affine=True, track_running_stats=True)
          )
        )
      )
      (2): NetworkBlock(
        (layer): Sequential(
          (0): BasicBlock(
            (conv): Conv2d(384, 128, kernel_size=(3, 3), stride=(2, 2), padding=(1, 1))
            (batchNorm1): BatchNorm2d(128, eps=1e-05, momentum=0.9, affine=True, track_running_stats=True)
          )
          (1): BasicBlock(
            (conv): Conv2d(128, 128, kernel_size=(3, 3), stride=(1, 1), padding=(1, 1))
            (batchNorm1): BatchNorm2d(128, eps=1e-05, momentum=0.9, affine=True, track_running_stats=True)
          )
          (2): BasicBlock(
            (conv): Conv2d(128, 128, kernel_size=(3, 3), stride=(1, 1), padding=(1, 1))
            (batchNorm1): BatchNorm2d(128, eps=1e-05, momentum=0.9, affine=True, track_running_stats=True)
          )
        )
      )
      (3): NetworkBlock(
        (layer): Sequential(
          (0): BasicBlock(
            (conv): Conv2d(192, 64, kernel_size=(3, 3), stride=(1, 1), padding=(1, 1))
            (batchNorm1): BatchNorm2d(64, eps=1e-05, momentum=0.9, affine=True, track_running_stats=True)
          )
          (1): BasicBlock(
            (conv): Conv2d(64, 64, kernel_size=(3, 3), stride=(1, 1), padding=(1, 1))
            (batchNorm1): BatchNorm2d(64, eps=1e-05, momentum=0.9, affine=True, track_running_stats=True)
          )
        )
      )
    )
    (upsampler): ModuleList(
      (0): Upsample(size=(4, 4), mode=bilinear)
      (1): Upsample(size=(7, 7), mode=bilinear)
      (2): Upsample(size=(14, 14), mode=bilinear)
      (3): Upsample(size=(28, 28), mode=bilinear)
    )
    (conv_1): Conv2d(64, 1, kernel_size=(1, 1), stride=(1, 1))
  )
), 'prec': 0.9895000014305114}, 'deepfool': {'denoiser': DataParallel(
  (module): Denoiser(
    (forward_blocks): ModuleList(
      (0): NetworkBlock(
        (layer): Sequential(
          (0): BasicBlock(
            (conv): Conv2d(1, 64, kernel_size=(3, 3), stride=(1, 1), padding=(1, 1))
            (batchNorm1): BatchNorm2d(64, eps=1e-05, momentum=0.9, affine=True, track_running_stats=True)
          )
          (1): BasicBlock(
            (conv): Conv2d(64, 64, kernel_size=(3, 3), stride=(1, 1), padding=(1, 1))
            (batchNorm1): BatchNorm2d(64, eps=1e-05, momentum=0.9, affine=True, track_running_stats=True)
          )
        )
      )
      (1): NetworkBlock(
        (layer): Sequential(
          (0): BasicBlock(
            (conv): Conv2d(64, 128, kernel_size=(3, 3), stride=(2, 2), padding=(1, 1))
            (batchNorm1): BatchNorm2d(128, eps=1e-05, momentum=0.9, affine=True, track_running_stats=True)
          )
          (1): BasicBlock(
            (conv): Conv2d(128, 128, kernel_size=(3, 3), stride=(1, 1), padding=(1, 1))
            (batchNorm1): BatchNorm2d(128, eps=1e-05, momentum=0.9, affine=True, track_running_stats=True)
          )
          (2): BasicBlock(
            (conv): Conv2d(128, 128, kernel_size=(3, 3), stride=(1, 1), padding=(1, 1))
            (batchNorm1): BatchNorm2d(128, eps=1e-05, momentum=0.9, affine=True, track_running_stats=True)
          )
        )
      )
      (2): NetworkBlock(
        (layer): Sequential(
          (0): BasicBlock(
            (conv): Conv2d(128, 256, kernel_size=(3, 3), stride=(2, 2), padding=(1, 1))
            (batchNorm1): BatchNorm2d(256, eps=1e-05, momentum=0.9, affine=True, track_running_stats=True)
          )
          (1): BasicBlock(
            (conv): Conv2d(256, 256, kernel_size=(3, 3), stride=(1, 1), padding=(1, 1))
            (batchNorm1): BatchNorm2d(256, eps=1e-05, momentum=0.9, affine=True, track_running_stats=True)
          )
          (2): BasicBlock(
            (conv): Conv2d(256, 256, kernel_size=(3, 3), stride=(1, 1), padding=(1, 1))
            (batchNorm1): BatchNorm2d(256, eps=1e-05, momentum=0.9, affine=True, track_running_stats=True)
          )
        )
      )
      (3): NetworkBlock(
        (layer): Sequential(
          (0): BasicBlock(
            (conv): Conv2d(256, 256, kernel_size=(3, 3), stride=(2, 2), padding=(1, 1))
            (batchNorm1): BatchNorm2d(256, eps=1e-05, momentum=0.9, affine=True, track_running_stats=True)
          )
          (1): BasicBlock(
            (conv): Conv2d(256, 256, kernel_size=(3, 3), stride=(1, 1), padding=(1, 1))
            (batchNorm1): BatchNorm2d(256, eps=1e-05, momentum=0.9, affine=True, track_running_stats=True)
          )
          (2): BasicBlock(
            (conv): Conv2d(256, 256, kernel_size=(3, 3), stride=(1, 1), padding=(1, 1))
            (batchNorm1): BatchNorm2d(256, eps=1e-05, momentum=0.9, affine=True, track_running_stats=True)
          )
        )
      )
      (4): NetworkBlock(
        (layer): Sequential(
          (0): BasicBlock(
            (conv): Conv2d(256, 256, kernel_size=(3, 3), stride=(2, 2), padding=(1, 1))
            (batchNorm1): BatchNorm2d(256, eps=1e-05, momentum=0.9, affine=True, track_running_stats=True)
          )
          (1): BasicBlock(
            (conv): Conv2d(256, 256, kernel_size=(3, 3), stride=(1, 1), padding=(1, 1))
            (batchNorm1): BatchNorm2d(256, eps=1e-05, momentum=0.9, affine=True, track_running_stats=True)
          )
          (2): BasicBlock(
            (conv): Conv2d(256, 256, kernel_size=(3, 3), stride=(1, 1), padding=(1, 1))
            (batchNorm1): BatchNorm2d(256, eps=1e-05, momentum=0.9, affine=True, track_running_stats=True)
          )
        )
      )
    )
    (backward_blocks): ModuleList(
      (0): NetworkBlock(
        (layer): Sequential(
          (0): BasicBlock(
            (conv): Conv2d(512, 256, kernel_size=(3, 3), stride=(2, 2), padding=(1, 1))
            (batchNorm1): BatchNorm2d(256, eps=1e-05, momentum=0.9, affine=True, track_running_stats=True)
          )
          (1): BasicBlock(
            (conv): Conv2d(256, 256, kernel_size=(3, 3), stride=(1, 1), padding=(1, 1))
            (batchNorm1): BatchNorm2d(256, eps=1e-05, momentum=0.9, affine=True, track_running_stats=True)
          )
          (2): BasicBlock(
            (conv): Conv2d(256, 256, kernel_size=(3, 3), stride=(1, 1), padding=(1, 1))
            (batchNorm1): BatchNorm2d(256, eps=1e-05, momentum=0.9, affine=True, track_running_stats=True)
          )
        )
      )
      (1): NetworkBlock(
        (layer): Sequential(
          (0): BasicBlock(
            (conv): Conv2d(512, 256, kernel_size=(3, 3), stride=(2, 2), padding=(1, 1))
            (batchNorm1): BatchNorm2d(256, eps=1e-05, momentum=0.9, affine=True, track_running_stats=True)
          )
          (1): BasicBlock(
            (conv): Conv2d(256, 256, kernel_size=(3, 3), stride=(1, 1), padding=(1, 1))
            (batchNorm1): BatchNorm2d(256, eps=1e-05, momentum=0.9, affine=True, track_running_stats=True)
          )
          (2): BasicBlock(
            (conv): Conv2d(256, 256, kernel_size=(3, 3), stride=(1, 1), padding=(1, 1))
            (batchNorm1): BatchNorm2d(256, eps=1e-05, momentum=0.9, affine=True, track_running_stats=True)
          )
        )
      )
      (2): NetworkBlock(
        (layer): Sequential(
          (0): BasicBlock(
            (conv): Conv2d(384, 128, kernel_size=(3, 3), stride=(2, 2), padding=(1, 1))
            (batchNorm1): BatchNorm2d(128, eps=1e-05, momentum=0.9, affine=True, track_running_stats=True)
          )
          (1): BasicBlock(
            (conv): Conv2d(128, 128, kernel_size=(3, 3), stride=(1, 1), padding=(1, 1))
            (batchNorm1): BatchNorm2d(128, eps=1e-05, momentum=0.9, affine=True, track_running_stats=True)
          )
          (2): BasicBlock(
            (conv): Conv2d(128, 128, kernel_size=(3, 3), stride=(1, 1), padding=(1, 1))
            (batchNorm1): BatchNorm2d(128, eps=1e-05, momentum=0.9, affine=True, track_running_stats=True)
          )
        )
      )
      (3): NetworkBlock(
        (layer): Sequential(
          (0): BasicBlock(
            (conv): Conv2d(192, 64, kernel_size=(3, 3), stride=(1, 1), padding=(1, 1))
            (batchNorm1): BatchNorm2d(64, eps=1e-05, momentum=0.9, affine=True, track_running_stats=True)
          )
          (1): BasicBlock(
            (conv): Conv2d(64, 64, kernel_size=(3, 3), stride=(1, 1), padding=(1, 1))
            (batchNorm1): BatchNorm2d(64, eps=1e-05, momentum=0.9, affine=True, track_running_stats=True)
          )
        )
      )
    )
    (upsampler): ModuleList(
      (0): Upsample(size=(4, 4), mode=bilinear)
      (1): Upsample(size=(7, 7), mode=bilinear)
      (2): Upsample(size=(14, 14), mode=bilinear)
      (3): Upsample(size=(28, 28), mode=bilinear)
    )
    (conv_1): Conv2d(64, 1, kernel_size=(1, 1), stride=(1, 1))
  )
), 'prec': 0.9685000004768372}, 'difgsm': {'denoiser': DataParallel(
  (module): Denoiser(
    (forward_blocks): ModuleList(
      (0): NetworkBlock(
        (layer): Sequential(
          (0): BasicBlock(
            (conv): Conv2d(1, 64, kernel_size=(3, 3), stride=(1, 1), padding=(1, 1))
            (batchNorm1): BatchNorm2d(64, eps=1e-05, momentum=0.9, affine=True, track_running_stats=True)
          )
          (1): BasicBlock(
            (conv): Conv2d(64, 64, kernel_size=(3, 3), stride=(1, 1), padding=(1, 1))
            (batchNorm1): BatchNorm2d(64, eps=1e-05, momentum=0.9, affine=True, track_running_stats=True)
          )
        )
      )
      (1): NetworkBlock(
        (layer): Sequential(
          (0): BasicBlock(
            (conv): Conv2d(64, 128, kernel_size=(3, 3), stride=(2, 2), padding=(1, 1))
            (batchNorm1): BatchNorm2d(128, eps=1e-05, momentum=0.9, affine=True, track_running_stats=True)
          )
          (1): BasicBlock(
            (conv): Conv2d(128, 128, kernel_size=(3, 3), stride=(1, 1), padding=(1, 1))
            (batchNorm1): BatchNorm2d(128, eps=1e-05, momentum=0.9, affine=True, track_running_stats=True)
          )
          (2): BasicBlock(
            (conv): Conv2d(128, 128, kernel_size=(3, 3), stride=(1, 1), padding=(1, 1))
            (batchNorm1): BatchNorm2d(128, eps=1e-05, momentum=0.9, affine=True, track_running_stats=True)
          )
        )
      )
      (2): NetworkBlock(
        (layer): Sequential(
          (0): BasicBlock(
            (conv): Conv2d(128, 256, kernel_size=(3, 3), stride=(2, 2), padding=(1, 1))
            (batchNorm1): BatchNorm2d(256, eps=1e-05, momentum=0.9, affine=True, track_running_stats=True)
          )
          (1): BasicBlock(
            (conv): Conv2d(256, 256, kernel_size=(3, 3), stride=(1, 1), padding=(1, 1))
            (batchNorm1): BatchNorm2d(256, eps=1e-05, momentum=0.9, affine=True, track_running_stats=True)
          )
          (2): BasicBlock(
            (conv): Conv2d(256, 256, kernel_size=(3, 3), stride=(1, 1), padding=(1, 1))
            (batchNorm1): BatchNorm2d(256, eps=1e-05, momentum=0.9, affine=True, track_running_stats=True)
          )
        )
      )
      (3): NetworkBlock(
        (layer): Sequential(
          (0): BasicBlock(
            (conv): Conv2d(256, 256, kernel_size=(3, 3), stride=(2, 2), padding=(1, 1))
            (batchNorm1): BatchNorm2d(256, eps=1e-05, momentum=0.9, affine=True, track_running_stats=True)
          )
          (1): BasicBlock(
            (conv): Conv2d(256, 256, kernel_size=(3, 3), stride=(1, 1), padding=(1, 1))
            (batchNorm1): BatchNorm2d(256, eps=1e-05, momentum=0.9, affine=True, track_running_stats=True)
          )
          (2): BasicBlock(
            (conv): Conv2d(256, 256, kernel_size=(3, 3), stride=(1, 1), padding=(1, 1))
            (batchNorm1): BatchNorm2d(256, eps=1e-05, momentum=0.9, affine=True, track_running_stats=True)
          )
        )
      )
      (4): NetworkBlock(
        (layer): Sequential(
          (0): BasicBlock(
            (conv): Conv2d(256, 256, kernel_size=(3, 3), stride=(2, 2), padding=(1, 1))
            (batchNorm1): BatchNorm2d(256, eps=1e-05, momentum=0.9, affine=True, track_running_stats=True)
          )
          (1): BasicBlock(
            (conv): Conv2d(256, 256, kernel_size=(3, 3), stride=(1, 1), padding=(1, 1))
            (batchNorm1): BatchNorm2d(256, eps=1e-05, momentum=0.9, affine=True, track_running_stats=True)
          )
          (2): BasicBlock(
            (conv): Conv2d(256, 256, kernel_size=(3, 3), stride=(1, 1), padding=(1, 1))
            (batchNorm1): BatchNorm2d(256, eps=1e-05, momentum=0.9, affine=True, track_running_stats=True)
          )
        )
      )
    )
    (backward_blocks): ModuleList(
      (0): NetworkBlock(
        (layer): Sequential(
          (0): BasicBlock(
            (conv): Conv2d(512, 256, kernel_size=(3, 3), stride=(2, 2), padding=(1, 1))
            (batchNorm1): BatchNorm2d(256, eps=1e-05, momentum=0.9, affine=True, track_running_stats=True)
          )
          (1): BasicBlock(
            (conv): Conv2d(256, 256, kernel_size=(3, 3), stride=(1, 1), padding=(1, 1))
            (batchNorm1): BatchNorm2d(256, eps=1e-05, momentum=0.9, affine=True, track_running_stats=True)
          )
          (2): BasicBlock(
            (conv): Conv2d(256, 256, kernel_size=(3, 3), stride=(1, 1), padding=(1, 1))
            (batchNorm1): BatchNorm2d(256, eps=1e-05, momentum=0.9, affine=True, track_running_stats=True)
          )
        )
      )
      (1): NetworkBlock(
        (layer): Sequential(
          (0): BasicBlock(
            (conv): Conv2d(512, 256, kernel_size=(3, 3), stride=(2, 2), padding=(1, 1))
            (batchNorm1): BatchNorm2d(256, eps=1e-05, momentum=0.9, affine=True, track_running_stats=True)
          )
          (1): BasicBlock(
            (conv): Conv2d(256, 256, kernel_size=(3, 3), stride=(1, 1), padding=(1, 1))
            (batchNorm1): BatchNorm2d(256, eps=1e-05, momentum=0.9, affine=True, track_running_stats=True)
          )
          (2): BasicBlock(
            (conv): Conv2d(256, 256, kernel_size=(3, 3), stride=(1, 1), padding=(1, 1))
            (batchNorm1): BatchNorm2d(256, eps=1e-05, momentum=0.9, affine=True, track_running_stats=True)
          )
        )
      )
      (2): NetworkBlock(
        (layer): Sequential(
          (0): BasicBlock(
            (conv): Conv2d(384, 128, kernel_size=(3, 3), stride=(2, 2), padding=(1, 1))
            (batchNorm1): BatchNorm2d(128, eps=1e-05, momentum=0.9, affine=True, track_running_stats=True)
          )
          (1): BasicBlock(
            (conv): Conv2d(128, 128, kernel_size=(3, 3), stride=(1, 1), padding=(1, 1))
            (batchNorm1): BatchNorm2d(128, eps=1e-05, momentum=0.9, affine=True, track_running_stats=True)
          )
          (2): BasicBlock(
            (conv): Conv2d(128, 128, kernel_size=(3, 3), stride=(1, 1), padding=(1, 1))
            (batchNorm1): BatchNorm2d(128, eps=1e-05, momentum=0.9, affine=True, track_running_stats=True)
          )
        )
      )
      (3): NetworkBlock(
        (layer): Sequential(
          (0): BasicBlock(
            (conv): Conv2d(192, 64, kernel_size=(3, 3), stride=(1, 1), padding=(1, 1))
            (batchNorm1): BatchNorm2d(64, eps=1e-05, momentum=0.9, affine=True, track_running_stats=True)
          )
          (1): BasicBlock(
            (conv): Conv2d(64, 64, kernel_size=(3, 3), stride=(1, 1), padding=(1, 1))
            (batchNorm1): BatchNorm2d(64, eps=1e-05, momentum=0.9, affine=True, track_running_stats=True)
          )
        )
      )
    )
    (upsampler): ModuleList(
      (0): Upsample(size=(4, 4), mode=bilinear)
      (1): Upsample(size=(7, 7), mode=bilinear)
      (2): Upsample(size=(14, 14), mode=bilinear)
      (3): Upsample(size=(28, 28), mode=bilinear)
    )
    (conv_1): Conv2d(64, 1, kernel_size=(1, 1), stride=(1, 1))
  )
), 'prec': 0.9870000014305115}}
